MNIST_CNN.pth (torch, 457178 bytes, 22 tensors)

conv1.0.weight f4 [64, 3, 3, 3]
00000000: 096f 5e3d 66ef 0c3e 38a1 25be 7537 e83d
00000010: 2055 d03d e354 08be 9bda 773b 011a ebbd
00000020: 3d00 32be f05f 1dbd 10d6 1dbe 1a07 afbd
00000030: 7456 b0bc 332f 03be 43ff 07be af86 103e
00000040: 8118 dc3c f88b bf3d 26f5 803d 9be8 283e
00000050: cd44 04bd 1c8e 133c a830 233d 53b3 bdbd
00000060: 80b6 003e 21b2 df3d 6a61 823d 1b57 3e3d
00000070: ca3a d73d 5bf3 f9bd bbc0 6bbd 39fb 3abd
00000080: 09b5 573d 30a1 ae3d 7337 06be ac91 e1bd
00000090: c7ea f83d 9b41 48bc 0c86 333d af16 d9bc
000000a0: 26bf f13d 5f71 66bd f27f c93d 6c1e 3bbd
000000b0: abf9 cb3c fbce 8a3b 85f8 c43d 8c32 05be
000000c0: 36dd e83d 80ec 083c 4cf2 60bc 73e4 b23d
000000d0: 2928 07be 98f8 2c3d c0b5 35be 08f1 133d
000000e0: 6f0a bebc ea22 043e 54ed 1f3d 35b4 b53d
000000f0: 9fc7 4dbd e88f f23d c3fd b13c 0ffd bbbd
00000100: e4f8 a73b b059 4c3e 5479 95bd dd79 883c
00000110: fc22 00be 5a81 0b3d 5c69 8dbd 1c2d f63c
00000120: d6b7 c83d a574 e7bc 9ff3 4d3d 8743 2abe
00000130: 3f0a 01be e2c6 2d3e 5c9d e23c 6f51 14bd
00000140: 5361 abbd b574 aebc 0c54 ffbc 5f5a 8e3c
00000150: 50a0 ebbb 35b4 dfbc 187e 52bb aeee 113d
00000160: a7e9 f6bc 8db0 1aba 39d1 60bc a2f2 f7bc
00000170: e0ed f43b 981b 973a e89d fbbc 1a1c 56bc
00000180: 00d6 d33b 45e6 34bb b117 6dbb 1bec 16bc
00000190: 96a2 f3bc 1259 97bc af18 a3bc d5ed 01bd
000001a0: 9f33 4abb 052d 823b 00c6 1fbd 2cb4 c13c
000001b0: 69c1 62bd c155 b5bd 65a1 adbc a8de 123d
000001c0: cd85 56bd ff5e a9bd e846 183e 1ffa 463d
000001d0: f0eb c3bd 4fa2 083e d44f 3b3d 9687 ecbd
000001e0: f99b d3bc 8ff8 a4bc b320 5b3d 2b48 d73d
000001f0: b986 da3d a090 04be eb7d 0d3e 2621 4fbd
00000200: 0d54 f23c 7cd1 6a3d f355 a0bd 2b88 4dbd
00000210: ed79 fd3d 46f8 123d ff5e 99ba 0bc9 85bd
00000220: dc77 a33d a00c d2bc e96b 3dbc 237f 5c3d
00000230: 0597 b0bc 7bec 8e3d 3adf d7bd 7f60 cd3d
00000240: bd16 24bd 81a3 cb3d 69dc 47bd a9f2 a4bc
00000250: 7ed7 eb3c bf2e aebc 75aa 82bd 5da3 bebd
00000260: 9270 6abc df74 e13d 5b7e 843d baa3 6b3d
00000270: a36c 933d b969 99b9 d552 833c 26da 24bd
00000280: 01ee 09be 7fdc a83d 54ff 2e3e 5704 7ebc
00000290: 2b2e 1dbe 113c 9a3d 7ddb 15bd a896 e6bd
000002a0: 7777 063d 0a78 da3d d716 ab3d e361 3e3e
000002b0: fae8 c9bc ebad 0cbe 0bf9 213e 4338 b43c
000002c0: 3410 aa3d c61e 95bc ea5c 83bd e078 81ba
000002d0: 9dd6 bcbc 9b61 9b3c fe98 7cbd c251 2bbd
000002e0: de06 10be 1fdc cc3c b311 cbbc 94be 36be
000002f0: affc 783d d660 1e3d 8458 1e3d 4e6a 11be
00000300: e863 0ebc d696 ea3b 1196 1e3e ae8c 87bd
00000310: 710c 2d3e abd6 f83d 2c77 83bc 0cba 8fbc
00000320: abef 483d fde8 00be 1f5c fabc 04c5 773d
00000330: ac72 adbc 1b9b a73d 8bfb a63d e044 00be
00000340: 3385 fbbd 8797 c53d f949 653d 8ed1 d43c
00000350: 6510 6dbd 8d5e e8bd e1a3 5d3d efcf 0cbe
00000360: e6ca 923d 88a4 d43c c9ac 443d e51b d83d
00000370: 9200 303d fd60 353d b040 01be 3c13 23be
00000380: 8d7c 9fbc a9e1 df3d 9a8c 083e e54a e13d
00000390: 4e7b 8e3d be84 2d3d f080 cebc 0b9e bcbd
000003a0: 178f eabc d129 e43d e13a eb3c 7ae3 c83b
000003b0: 4521 01be 2e1c 393d ccd2 1dbe be71 95bc
000003c0: 49c4 29be 6ea0 733c a0f8 ad3c f161 38be
000003d0: 843f 18be fa22 c4bd 6b38 a13c 9751 e33d
000003e0: c00e 11be 647a 263e c5c9 f3bd b14e ab3d
000003f0: 2258 13be 7bb1 583d 8f3b f63d 917f debd
0.05430511 0.13763198 -0.16174781 0.113387026 0.10172486 -0.13313632 0.0037819508 -0.11479569
-0.17382903 -0.03842157 -0.1541369 -0.085462764 -0.021525599 -0.12810974 -0.13280968 0.14113878
0.026867153 0.09352869 0.06296758 0.16494982 -0.032292176 0.0090060495 0.039841324 -0.09262719
0.12569618 0.10922647 0.063662365 0.04646979 0.1050926 -0.122046195 -0.05755685 -0.04564974
0.052662883 0.08526838 -0.1310709 -0.11014113 0.12154155 -0.012222673 0.04382901 -0.026500074
0.11804037 -0.056260463 0.09838857 -0.04568331 0.024899324 0.0042361 0.09617714 -0.13007563
0.11370318 0.008357167 -0.013729643 0.087349795 -0.13198914 0.042229265 -0.17745113 0.036118537
-0.023198335 0.12903944 0.039044693 0.088722624 -0.0502392 0.11843854 0.021727448 -0.091791265
0.0051261056 0.19956088 -0.07298532 0.016659671 -0.12513345 0.034058906 -0.06904861 0.030050807
0.09800689 -0.028253863 0.050281163 -0.16627322 -0.12601565 0.16970399 0.027662925 -0.036210474
-0.083681725 -0.021295885 -0.031168006 0.017377077 -0.0071907416 -0.02730761 -0.0032118615 0.035628013
-0.030140711 -0.0005900942 -0.013721758 -0.030267064 0.007474646 0.0011528609 -0.030714944 -0.013068223
0.00646472 -0.0027603072 -0.0036177451 -0.009211565 -0.029740613 -0.01847509 -0.019909231 -0.031720955
-0.0030853522 0.003972652 -0.039007187 0.023645483 -0.05536023 -0.08854247 -0.021195123 0.035856873
-0.052373696 -0.08270072 0.14870799 0.048578378 -0.09566486 0.13343166 0.045730427 -0.115492985
-0.02583121 -0.020138053 0.05349798 0.10511812 0.106702276 -0.12945795 0.13817565 -0.050568722
0.029581094 0.057328686 -0.078288935 -0.050178688 0.12376771 0.035881303 -0.0011701285 -0.065324865
0.07981846 -0.025640786 -0.011561372 0.053832185 -0.021556387 0.06978699 -0.10540624 0.10028171
-0.040060747 0.09943295 -0.048794184 -0.02013524 0.028789278 -0.021262525 -0.06380168 -0.09308503
-0.014309065 0.110086195 0.06469413 0.05752919 0.07198455 -0.00029261204 0.016030708 -0.040247105
-0.13469698 0.08245181 0.17089587 -0.015503964 -0.15349643 0.07530988 -0.036586273 -0.11259204
0.032828774 0.10667427 0.08353966 0.18592028 -0.024647225 -0.1373822 0.15817659 0.021999484
0.08303872 -0.01820315 -0.06414206 -0.0009877943 -0.023051554 0.01896744 -0.061669342 -0.041826017
-0.1406512 0.025007306 -0.024788713 -0.17846137 0.060787853 0.03866657 0.038658634 -0.14200708
-0.008690812 0.0071590943 0.15486933 -0.066186294 0.16899277 0.1215032 -0.016048037 -0.017544769
0.04905669 -0.12588878 -0.030561505 0.060490623 -0.021172844 0.08183881 0.08153447 -0.12526274
-0.12281265 0.09648042 0.05597875 0.02597883 -0.057876963 -0.11346159 0.054111365 -0.13751195
0.07167606 0.02595736 0.048016343 0.105521955 0.042969294 0.04428195 -0.12622333 -0.15925306
-0.01946857 0.10931713 0.13334885 0.11000613 0.06957112 0.04236292 -0.025207967 -0.09209832
-0.028632684 0.11140788 0.0287146 0.006130633 -0.12610348 0.04519289 -0.15412444 -0.018242713
-0.16578783 0.014869792 0.021236718 -0.18006112 -0.1486798 -0.09576984 0.019680222 0.110995464
-0.14165783 0.16257626 -0.11903719 0.083646186 -0.14389089 0.052903634 0.12023079 -0.10864175

conv1.0.bias f4 [64]
00000000: 5941 2e35 bd99 1fb4 2df5 47b5 5d47 2db5
00000010: 6d4f b032 073d c9b1 69ca 85b5 91b0 5c35
00000020: f1d0 03b6 0e18 1cb4 b466 8035 3148 67b4
00000030: a132 a235 647c 11b6 923d 3f34 85a9 81b4
00000040: 2433 73b4 aa63 1db6 7657 8835 eada 0eb4
00000050: 19b5 b734 8a40 2c35 0adb 8b35 520e 65b3
00000060: e850 5f34 3824 19b5 346e e4b3 c2e1 9033
00000070: eb60 c333 6e66 7935 236e 9735 8fa5 60b5
00000080: 2211 86b5 ad1d 7b35 d148 8fb6 2ce4 12b3
00000090: d009 2034 15dc ca36 f2bd 8735 083c 78b4
000000a0: eb07 14b4 b164 3634 8c2e 80b5 8182 e835
000000b0: f1ae 4935 ead0 b236 af5a 34b5 dd0b 04b5
000000c0: 4711 eeb3 ad59 0833 9214 0636 ee58 7db5
000000d0: 69a4 bc35 a666 8c35 fe97 f234 687a 3035
000000e0: 76fe 3db5 0209 af32 3782 69b5 a6bb 84b5
000000f0: c559 0b36 3222 ac35 dbd0 09b5 bf6b fc35
6.4915145e-07 -1.4863959e-07 -7.4490055e-07 -6.455137e-07 2.0525215e-08 -5.856808e-09 -9.968181e-07 8.2213325e-07
-1.964214e-06 -1.4537383e-07 9.566634e-07 -2.1539815e-07 1.2084676e-06 -2.1679089e-06 1.781066e-07 -2.4151464e-07
-2.2649743e-07 -2.3452835e-06 1.0158244e-06 -1.3304421e-07 3.4218172e-07 6.416891e-07 1.0420056e-06 -5.333124e-08
2.0797927e-07 -5.7049647e-07 -1.0637123e-07 6.7465876e-08 9.0980244e-08 9.2908783e-07 1.1282431e-06 -8.368742e-07
-9.988764e-07 9.354797e-07 -4.270209e-06 -3.4200795e-08 1.4904731e-07 6.04569e-06 1.0113565e-06 -2.3118639e-07
-1.3786455e-07 1.6986702e-07 -9.55029e-07 1.7323329e-06 7.513291e-07 5.329134e-06 -6.718719e-07 -4.9191095e-07
-1.10858814e-07 3.1746527e-08 1.997953e-06 -9.4379254e-07 1.4054941e-06 1.0460687e-06 4.5186601e-07 6.5743234e-07
-7.0778276e-07 2.0376778e-08 -8.698875e-07 -9.889379e-07 2.0764867e-06 1.2824951e-06 -5.13404e-07 1.8806821e-06

conv1.1.weight f4 [64]
00000000: fe35 2b3f c93f d13e 3ad5 f13e df1b da3e
00000010: ceb4 053f 3d46 9d3e 644a 323f c6df 0b3f
00000020: 48bd e83e 402c d33e 4992 df3e b930 043f
00000030: 8520 1e3f 4da9 123f b297 a83e 2fa6 ac3e
00000040: ac9f b93e 3eff 443f cd66 293f f41b e43e
00000050: 1cf0 ef3e 3254 f63e 213d 053f b884 563e
00000060: 5702 173f fc0a 3b3f 4399 8e3e fca6 ee3e
00000070: e9e8 983e d620 083f 465c 143f 5d3d 1e3f
00000080: ae35 003f c206 c23e db06 423f d68a e03e
00000090: 36d2 b53e dddf 003f 8b21 993e d48a 473f
000000a0: 2cf4 223f 73be 0a3f fc90 1f3f 0ef0 043f
000000b0: 03c7 953e d33b 1d3f bcda bc3e 9cdf 6d3e
000000c0: e90f e93e 44a3 8d3e cfb0 853e 65a8 363f
000000d0: 888d 3e3f af77 d53e f0e2 cf3e 57f5 c43e
000000e0: fb68 1c3f 27ca ec3e 89a2 c23e 23b3 113f
000000f0: 5310 1b3f a02a 183f e567 153f b715 203f
0.6687926 0.40868977 0.4723299 0.4259939 0.5222901 0.3071765 0.6964476 0.54638326
0.4545691 0.41244698 0.43666294 0.51636845 0.6176837 0.5728958 0.32928234 0.33720538
0.36254632 0.7695197 0.66172487 0.44552577 0.46862876 0.4811111 0.520464 0.20949066
0.58987945 0.73063636 0.27851304 0.46611774 0.29865196 0.53175104 0.579533 0.6181238
0.5008191 0.3789578 0.7579171 0.43855923 0.3551194 0.5034159 0.29908404 0.7794621
0.63653827 0.5419685 0.62330604 0.51928794 0.29253396 0.6141941 0.3688563 0.23229831
0.4551995 0.27663624 0.26111457 0.713507 0.7443471 0.41692874 0.40602827 0.3846843
0.6109769 0.4624798 0.3801463 0.56913966 0.60571784 0.5944004 0.58361655 0.62533134

conv1.1.bias f4 [64]
00000000: b9b7 97bd e731 8abd 6a2f 8abc d053 03be
00000010: 195f 0bbc 8d9c 7bbd f72e 85bd e67f 473d
00000020: 8022 32bd 88d7 633c 496d d0bd 88e2 3cbd
00000030: 61db dabd 9848 6ebd 2c8a 00bd f4dc c7bd
00000040: d266 69bc 9db3 04bd 50ef 5a3d 264e 1abd
00000050: d5c3 08be eb1c 27be 425f 9d3b 6ffe c2bd
00000060: 02af 48bd a0d3 97bd 00ce e8bc 699e 04be
00000070: 2cc8 0abe 9642 06bd 2e8d 62bc 83d1 19bd
00000080: 7772 5fbd 2834 d6bd c2c0 123b 2d6a 05be
00000090: 416b 66bd 8aac 0dbe dae3 e2bd 2486 b93d
000000a0: 2d79 edbc 6411 46bd d3cf 903d 51ac b6bd
000000b0: 1c24 a8bd c554 85bc 3bed 10be cd47 6dbd
000000c0: 3025 2cbd ff59 08be 0862 9d3b 7245 b4bc
000000d0: 1f83 18be 1d57 0fbe 44a5 8ebb 35bb 81bd
000000e0: f2d1 9dbc a5fa d9bd d7f5 debd f1ca 23bd
000000f0: c5d7 ea3c 4bda b73b 37e6 e7bc 53cd 06bd
-0.07408089 -0.06747799 -0.016868312 -0.1282494 -0.00850656 -0.061428595 -0.065030985 0.048705958
-0.043489933 0.013906367 -0.101770945 -0.046114475 -0.106863745 -0.0581747 -0.03138177 -0.0975894
-0.014245706 -0.032397855 0.053450882 -0.037672184 -0.13355954 -0.16319625 0.0048026154 -0.095211856
-0.048995025 -0.07413411 -0.028418541 -0.12951054 -0.13552922 -0.032778345 -0.013827605 -0.03755332
-0.05455252 -0.10459167 0.0022392725 -0.13028784 -0.05625463 -0.1383535 -0.110786155 0.090587884
-0.028988445 -0.04835643 0.07070889 -0.089195855 -0.08210012 -0.016275773 -0.14152996 -0.057929803
-0.042027652 -0.13315581 0.004802946 -0.02200577 -0.14893769 -0.13998075 -0.0043531973 -0.06334535
-0.019265149 -0.1064351 -0.10886734 -0.039988462 0.02866734 0.0056107393 -0.028308017 -0.032910656

conv1.1.running_mean f4 [64]
00000000: b97b a7bc 8e6e d13d c646 dc3b 7411 2dbe
00000010: 6251 ee3d 38d5 a33d d832 3abc bcfb 003d
00000020: bbde 8d3d 36da 023d bfc8 13be b46c 8d3b
00000030: e51f d4bc 8206 30bc 7eac c23d 0259 23be
00000040: c16c 463d 8e65 b5bc 5753 ae3c 8fe3 84bb
00000050: 8b6e eabd b359 6dbc f0e4 bd3b 4279 ba3d
00000060: fa11 623c dc2b a6bb 16e7 ff3d dcfd 90bd
00000070: 0326 b0bb 011c f8bb d6e6 e5bc 4c71 4e3d
00000080: 3b1b 8a3d 98ca d2bd 8960 10bc 3011 29bd
00000090: 02eb 823d 2ea5 fdbc ea97 85bd bf5b 26bb
000000a0: 5159 173b c904 a0bc 09d8 63bb 60a9 bfbc
000000b0: 044b db3d 506c eabc 3e28 c2bd ec43 b53d
000000c0: 28c0 04bd e1ad 3cbd a71f b13d 1ea5 3b3b
000000d0: 6a27 ac3c 36b9 23bd 85e3 463d 6a7e 9c3d
000000e0: 1e96 a13b 1789 113d 586f 18bd b41f c7bc
000000f0: 84e8 acbb fc2e 0dbd 6070 613b 2faf 38bd
-0.020444738 0.10226165 0.006722304 -0.16901189 0.11636616 0.079996526 -0.011364661 0.031490073
0.06927248 0.031946383 -0.14432047 0.004315937 -0.025894115 -0.010743739 0.095055565 -0.15951923
0.04844356 -0.022143152 0.021279974 -0.0040554474 -0.11446866 -0.014486718 0.0057951137 0.09105159
0.013798231 -0.0050711464 0.12495248 -0.0707967 -0.005375625 -0.0075716977 -0.028064173 0.050401017
0.06743475 -0.10292548 -0.008812078 -0.041276157 0.063924804 -0.030962553 -0.06523116 -0.0025384275
0.0023094008 -0.019533532 -0.0034766218 -0.023396194 0.107076675 -0.0286161 -0.09480332 0.08850846
-0.032409817 -0.04606426 0.08648615 0.0028632353 0.021014888 -0.039971553 0.048556823 0.07641299
0.0049312254 0.03553113 -0.03721556 -0.02430711 -0.0052767415 -0.034468636 0.0034399256 -0.045088943

conv1.1.running_var f4 [64]
00000000: f077 e23b 7a95 883b e9a9 073b be29 233b
00000010: a178 f73b 2f97 c03a aebf 743b 42b2 403b
00000020: e207 583b 8451 db3a 0e50 0a3b c7b7 df3a
00000030: f1e9 f73a 3cb6 313b 1bee e73a f8ee 1a3b
00000040: f465 113b fe02 a13b f9ff f83b f41d 723b
00000050: 23a3 7d3b a444 3d3b 4a51 a33a 0b5c 643a
00000060: d996 be3a e497 153b d210 ab3a d4d5 1b3b
00000070: 41a1 373a 5b0e 963b 0ec3 163b 47dc 973b
00000080: 3d67 233b 8a7f c03a 2509 273b 8bf4 853b
00000090: be33 2b3b fe99 8d3b 002d 653a 47b0 0c3c
000000a0: 2df8 273b eb33 053b dd63 943b 8f9f 013b
000000b0: 569d 983a fb5f cd3a 460b a33a 099e 763a
000000c0: c5f5 413b e59f f03a 1c62 5d3a 51ff af3b
000000d0: 7a0d 053b 432c 6c3a 1146 d13a f1fe de3a
000000e0: 4923 103b eb88 263b ebec 363b 2108 ab3a
000000f0: 7404 db3a af26 063b 93bb 823b 2df0 bc3a
0.0069112703 0.0041682096 0.002070064 0.0024896706 0.007552222 0.0014693494 0.0037345695 0.0029403125
0.0032963683 0.0016732668 0.0021104845 0.001706832 0.0018914324 0.0027116677 0.0017694862 0.0023640972
0.0022186013 0.004913687 0.0075988737 0.0036944123 0.0038701973 0.0028880024 0.0012460139 0.0008711225
0.0014540806 0.002282613 0.0013051277 0.0023778575 0.00070049247 0.004579348 0.0023004445 0.0046344134
0.002493336 0.0014686447 0.0025487628 0.0040879897 0.002612337 0.004321336 0.0008742362 0.00858695
0.0025630102 0.0020325135 0.004528506 0.0019778942 0.001164357 0.0015668863 0.0012439273 0.00094077043
0.0029595953 0.0018358199 0.00084451004 0.0053710123 0.0020302222 0.0009009281 0.0015966316 0.0017013234
0.0021993688 0.00254112 0.002791221 0.0013048687 0.0016709701 0.0020469835 0.0039896457 0.001441484

conv2.0.weight f4 [64, 64, 3, 3]
00000000: 21c4 a23b 1ea9 013d bc62 07bd 9a00 40bb
00000010: 7a93 8a3b 8860 fabc 6278 ccbc 2d73 313b
00000020: 7adf 21bd cb86 903c 9e40 eb3c 13f0 a13c
00000030: 121e 9fbc 8f9d 653c 0bf7 723c 90d8 12bd
00000040: 720d 6c3c dd72 50bb b557 933c 580a 81bc
00000050: f246 d5bc 2b79 24bc c64a e83b 5139 763b
00000060: 5faf 333d 0eaf 00bd 50ff cabc 0466 54bc
00000070: 6e7c 4abb 3a97 bcbc db70 65bc 967c 263c
00000080: b062 b4bc 9813 993c 5b12 4fbc 5d9a 7fbc
00000090: f4e8 91bc 1bd3 2c3d b65f 233c 0e71 dbbc
000000a0: 1f55 9e3c a7dc 82bc 2cfe 32bd 0848 d4bc
000000b0: 1abc 3dbd 77b8 953b 1fc6 c73c 49ae 99bb
000000c0: d4e0 e4bc 310b 08bc eaca 16bd 3cdf 01bd
000000d0: 48bd 733b f294 75bc 4370 46bc ec44 643d
000000e0: c687 313d d78b 653b a291 3a3d 4577 943b
000000f0: 8a6f bfbc e876 973c 1ad4 073b 3dee 4a3c
00000100: 0e9d 98bb 6053 bfbc a3c7 45bb fb76 56bb
00000110: 9d20 5bbc d63c 243b 6679 b83b 9319 bf3c
00000120: c9c8 bbbb 966f 22bb f8ee dfbb 245d 52bc
00000130: 8556 c8bc 4e6e 52bc 96a4 05bd 71de e9bb
00000140: 33dc bfbc f652 1cbc 1d74 f3bc 9158 32bc
00000150: 7e06 2ebd 8841 a3bc a6c7 233c 505e 2abd
00000160: 35e5 d4ba c150 09bc 1914 f2bb 84f2 86ba
00000170: 499b 893c d4fb 41bb 8118 1c3c ce00 a13c
00000180: 9846 b13c 1700 8abb 472e 833c f070 2cba
00000190: e3c3 1abb bf94 2f3b 80d9 9bbc 9fd0 4d3c
000001a0: 00e5 e0bc bf7a 7abc ae93 a7bc 27ca 94bc
000001b0: 999b 63bd cdad c73c b682 973c 3d94 00bd
000001c0: 4278 87bc 5278 1c3c 3c32 8cbb d034 d6bc
000001d0: ae23 83bc 8f6c 4dbd a356 2b3b d3f5 1ebb
000001e0: 5ac0 08bd 916d d7bc 5d67 dfbc f35f 0ebc
000001f0: 4d0e e1bc 0ea7 ceba 433d e33c 439e 193c
00000200: b38d a03b 7bdd d9bb b5b2 fe3b 9ac6 90bc
00000210: 136c e73b fced 1e3c 220b 0fbc dc5a d5bb
00000220: 5fc0 c1bb 1add 32bc 5417 b63b 05bd b23a
00000230: 3e0a 73bc abe6 16bc 6a70 5abc 8d49 10bd
00000240: 4cb0 13bd 312a 07bb 82eb f1bb a67e 9bbc
00000250: 04d2 e9bb d1cd 40bb 74b6 8fbc bb3a ebbc
00000260: dd71 47bc e9f0 76bd a67c 79bc 53e7 89bc
00000270: 4d72 89bd a645 9bbd f59f 50bd d746 0ebd
00000280: cea9 87bd 41ad 82bd b68e 10bc 4b1a abbc
00000290: 8288 15bd 7caa 5ebb d99c 9cbb 7254 0abd
000002a0: 375e e23a 0689 d9bc 70ca ddbc 3839 d2bc
000002b0: 1ec2 0c3c feab 62ba a929 83bc 6c6e 7bbb
000002c0: b50e 86bc 59e0 8a3c b7d5 ed3c 9ffe 81bc
000002d0: 27cb 47bc db46 b238 ccab 1f3c fe25 1abd
000002e0: 20ea d7bc 98e7 1fbc a888 39bd 7f90 4cbc
000002f0: 2474 41bb 3ac8 253c f373 85bb 6ea2 f8bc
00000300: ac29 09bc 3320 35bb 9f30 32bd ce95 1d3d
00000310: cfff 13bd 9265 a0bb a7c7 4abd d36a 8abb
00000320: eecc 48bc 4751 14bd f1ed fcbc e1a1 17bd
00000330: 8a2b a1bc c6ac 28bd 8f0a a5bc 2cc3 d03b
00000340: f973 be3c 56d8 773c 5a0a 80bc c76a bc3b
00000350: d7ea 4abc 369c b7bc b3ab c9bb 305e 853a
00000360: 1792 5abd 78ee f43a 6b94 a73c 656b a4bd
00000370: 4140 0dbd 70a2 04bd c697 3e3c 99c4 83bc
00000380: 4f45 bfbc 25f1 743a a33d e1bb bde7 963c
00000390: 0040 a13c 3f20 023c de36 eabc ba5b a73c
000003a0: 2d9e 6d3c 42c0 cd3c f5e8 5c3c 1ce0 913b
000003b0: 14b3 823b 4842 adbc 7efd 863c 2291 30bb
000003c0: 1fcd 51bc 5afd 87bc 9c58 86bc b56e 42bb
000003d0: c5b8 c0b9 f5d8 69bb 1cb0 1eb9 7778 5fb7
000003e0: 450d d9bc e2fa 373c e17d cfbc 9118 35bd
000003f0: 9c07 8fba 8144 293c d4cd cbbc 2a75 583c
0.004967228 0.031655423 -0.033053145 -0.0029297234 0.0042290064 -0.030563608 -0.024959747 0.0027076707
-0.039519764 0.0176424 0.028717335 0.019767797 -0.019423518 0.014014616 0.014829407 -0.03585106
0.0144075025 -0.0031806745 0.017986158 -0.015752003 -0.026034806 -0.010038654 0.007088992 0.0037570784
0.04386842 -0.031416945 -0.024779946 -0.012963776 -0.003089692 -0.02302133 -0.014003958 0.01016154
-0.022019714 0.0186861 -0.012638654 -0.015600768 -0.017811276 0.042193513 0.00997155 -0.026787307
0.019327698 -0.015974356 -0.04369943 -0.025913253 -0.046321966 0.004569109 0.024386464 -0.004689966
-0.027939238 -0.0083034495 -0.036814608 -0.031707034 0.0037191678 -0.014989125 -0.012111726 0.05572979
0.043342374 0.0035025978 0.045549043 0.0045308196 -0.023368616 0.018489316 0.0020725788 0.012385902
-0.0046573943 -0.023355186 -0.0030178807 -0.0032724726 -0.013374475 0.0025060675 0.005629706 0.023327624
-0.0057307226 -0.0024785749 -0.006833907 -0.012839589 -0.024455318 -0.0128436815 -0.032627665 -0.007137113
-0.023420429 -0.009541264 -0.029718453 -0.010885374 -0.04248666 -0.019928709 0.00999633 -0.04159385
-0.0016242625 -0.00838107 -0.0073876497 -0.0010295664 0.016797679 -0.0029599564 0.009527327 0.019653704
0.021640107 -0.0042114365 0.016013278 -0.00065781083 -0.0023615293 0.002679154 -0.01902461 0.012561946
-0.027452946 -0.015288054 -0.020456161 -0.0181628 -0.05556831 0.024374867 0.018494945 -0.03139137
-0.016536836 0.009550171 -0.0042784493 -0.02614823 -0.016008224 -0.050152358 0.0026144169 -0.002425541
-0.033386566 -0.026297363 -0.027270967 -0.008689868 -0.02747264 -0.0015766339 0.027739173 0.009376111
0.0048997044 -0.006648717 0.0077727684 -0.017672826 0.007062444 0.009700295 -0.008730682 -0.0065110754
-0.005912825 -0.0109169725 0.00555698 0.0013636654 -0.014833985 -0.009210269 -0.013332466 -0.035226393
-0.0360568 -0.0020624513 -0.007382811 -0.01898129 -0.0071356315 -0.002941955 -0.017543055 -0.028714528
-0.012173143 -0.060288344 -0.015227472 -0.016833937 -0.06711254 -0.07581644 -0.050933797 -0.034735527
-0.066241845 -0.06380702 -0.008823087 -0.02088656 -0.036507137 -0.0033976128 -0.00477944 -0.03377194
0.001727051 -0.026554596 -0.027074069 -0.02566205 0.008591203 -0.00086468447 -0.016011076 -0.0038365377
-0.016364435 0.01695268 0.029032571 -0.015868483 -0.012194431 8.500899e-05 0.009745549 -0.03763389
-0.026356757 -0.009759806 -0.04529634 -0.012485622 -0.0029518688 0.0101185385 -0.00407266 -0.03035089
-0.008371752 -0.00276376 -0.0435034 0.038472943 -0.03613263 -0.0048949206 -0.04950681 -0.00422416
-0.01225589 -0.036210325 -0.030875178 -0.037019614 -0.019674081 -0.041180395 -0.020146636 0.0063709226
0.02324866 0.015127262 -0.015629936 0.0057500335 -0.012385092 -0.022413354 -0.0061545013 0.0010175165
-0.05336198 0.0018686792 0.020456513 -0.080282964 -0.034485105 -0.032381475 0.011632865 -0.016084956
-0.023348479 0.00093437947 -0.0068738027 0.018421048 0.019683838 0.007942258 -0.028590616 0.02042948
0.014503044 0.02511609 0.013483276 0.0044517647 0.003988633 -0.02114977 0.016478296 -0.0026941975
-0.012805252 -0.0166003 -0.016399674 -0.0029668037 -0.00036758758 -0.0035682295 -0.0001513366 -1.3319884e-05
-0.026495585 0.011229249 -0.025328578 -0.04421288 -0.0010912302 0.010331274 -0.02487842 0.013211528

conv2.0.bias f4 [64]
00000000: 2c8f 6d33 6ad6 78b2 2773 d7b4 0bdd 54b3
00000010: e3aa 9335 ceb8 a234 33b9 8db4 6b7f 5834
00000020: 340d 7134 0742 3b35 cc60 d4b5 95c1 8135
00000030: 64a7 0fb4 69af 07b5 a36f aab4 78f3 3635
00000040: 78fb 8db3 23ac b634 e9d1 1bb4 910c 5c32
00000050: eca7 8c33 b242 9eb5 0a59 10b5 9018 8bb3
00000060: 039d 7334 0e86 b833 0b7c a2b5 d1bd 94b4
00000070: ef78 0f34 391b c133 9f98 0235 79a7 8034
00000080: be2e 4134 3d87 93b3 911c d4b4 64c8 8fb4
00000090: ee49 6b34 d3c1 26b5 eedc 48b4 4747 11b4
000000a0: 0d04 a6b1 38ea 8b34 2c9b cbb4 e131 2fb5
000000b0: 9d80 b6b4 ca23 9934 6645 9335 8f99 04b5
000000c0: 32e4 5034 1ef5 6c33 2085 c534 5c64 dd35
000000d0: 2517 4a33 38a9 7034 5629 c4b4 b23f 2f34
000000e0: b0ff e0b4 692e 5cb4 4de1 1235 450f d2b4
000000f0: 912d 8435 3520 d6b4 f416 e134 8049 8f34
5.5311077e-08 -1.4484252e-08 -4.0130655e-07 -4.9561134e-08 1.1002088e-06 3.0309315e-07 -2.6398047e-07 2.0162922e-07
2.2449677e-07 6.975901e-07 -1.5823402e-06 9.667589e-07 -1.3378809e-07 -5.0546674e-07 -3.1746194e-07 6.8154577e-07
-6.611566e-08 3.4025388e-07 -1.4511865e-07 1.2808543e-08 6.549803e-08 -1.1791328e-06 -5.377375e-07 -6.47716e-08
2.2688259e-07 8.592552e-08 -1.2106042e-06 -2.7705258e-07 1.3361908e-07 8.9922146e-08 4.8650867e-07 2.396371e-07
1.799153e-07 -6.8698206e-08 -3.9508862e-07 -2.678163e-07 2.1912976e-07 -6.212187e-07 -1.8706825e-07 -1.3530108e-07
-4.8316964e-09 2.6061184e-07 -3.79246e-07 -6.5265164e-07 -3.399372e-07 2.852451e-07 1.0972551e-06 -4.939729e-07
1.9454527e-07 5.5170965e-08 3.679097e-07 1.6494992e-06 4.705284e-08 2.2413303e-07 -3.653792e-07 1.6321317e-07
-4.1909288e-07 -2.050598e-07 5.4717094e-07 -3.9126658e-07 9.848028e-07 -3.988404e-07 4.1926216e-07 2.6689304e-07

conv2.1.weight f4 [64]
00000000: e4a3 013f a160 033f bfd3 0a3f 962a 193f
00000010: 0773 123f 35b6 1b3f ace7 023f e475 143f
00000020: 0620 1d3f 68f4 083f a552 0e3f fcbe 023f
00000030: 729d 173f 6bc7 033f bd7a 1a3f 1e02 253f
00000040: 6ac0 053f fd2b 1c3f 8f1e 183f d005 153f
00000050: d866 0a3f 7cc8 093f dbbc 123f ed48 053f
00000060: 0b19 0c3f ebaf 1a3f 54ba 0f3f 9dbe 1c3f
00000070: e07d 033f 8cb2 fe3e 4b29 133f 4062 043f
00000080: 9607 0d3f 470c 0a3f b562 103f 9d66 103f
00000090: 9f89 1b3f 2833 093f 5487 023f b648 163f
000000a0: 8ee9 0e3f 9cd5 0b3f 05ec 0e3f 26eb 133f
000000b0: 4ecd 103f 3f14 173f 13d9 0f3f 9969 163f
000000c0: e3fb 123f a6c3 163f 4f9e 0d3f 1a12 063f
000000d0: fc2e 0b3f 70c1 263f e599 183f 1ef8 173f
000000e0: 58c9 063f 58eb 0a3f 10a6 1b3f c017 063f
000000f0: f532 103f e866 113f 25a5 073f d71f 1b3f
0.506407 0.5131932 0.5422935 0.59830606 0.5720677 0.608249 0.51134753 0.57992387
0.6137699 0.53497934 0.55594856 0.5107267 0.5922462 0.5147616 0.60343534 0.64456356
0.52246726 0.6100462 0.5942163 0.58211994 0.5406318 0.5382154 0.5731942 0.520644
0.5472571 0.6042468 0.5614369 0.6122835 0.51363945 0.49745595 0.57484883 0.5171242
0.550897 0.53924984 0.56400615 0.56406575 0.6075687 0.53593683 0.50987744 0.587047
0.55825126 0.5462282 0.5582889 0.57780683 0.5656327 0.5901527 0.56190604 0.5875488
0.574156 0.58892286 0.55319685 0.5237137 0.5436857 0.6513891 0.59609824 0.5936297
0.52650976 0.54265356 0.60800266 0.5237999 0.56327754 0.5679765 0.52986366 0.6059546

conv2.1.bias f4 [64]
00000000: f125 3ebe 3a3d 65be 683c 80be d80a 72be
00000010: b8bc 91be 6f00 8cbe 104c 4abe 6f2d 61be
00000020: a9c4 87be 746b 90be 067e 60be 2ed6 46be
00000030: e9a8 b5be 1b0a 43be 9548 69be a3d7 6cbe
00000040: 937e 36be b332 89be 6b96 48be 229f 43be
00000050: 8a1c 94be 82c5 40be 573e a7be 7336 2bbe
00000060: 2f3f 18be 823b 87be 0691 8dbe 2df7 63be
00000070: 4791 70be 7dec 8fbe 2637 9abe cdc4 83be
00000080: 2143 01be 357b 81be badd 98be 5f89 55be
00000090: 9164 4bbe d450 65be d6da 27be 81f1 4abe
000000a0: b048 64be 17da 25be a3fb 8abe 68ef 64be
000000b0: 0a4f 53be 6c54 65be 9bf7 22be b7d8 35be
000000c0: 4d37 40be 1fac 8cbe 5c24 5dbe 9ec4 6bbe
000000d0: 1668 7abe 7721 81be f908 82be a4c9 54be
000000e0: fef3 44be c91c 74be 8a0b 31be 2eae 58be
000000f0: 955b 6cbe 01a6 a6be d9db 07be a605 75be
-0.18569161 -0.22386637 -0.25046086 -0.23636949 -0.28464293 -0.2734408 -0.19755578 -0.21989988
-0.26517227 -0.2820698 -0.21923074 -0.1941764 -0.3548043 -0.19046824 -0.22781594 -0.23129134
-0.17821722 -0.26796493 -0.1958863 -0.19103673 -0.28928024 -0.18825343 -0.3266475 -0.1671999
-0.14867853 -0.26412588 -0.27649707 -0.22262259 -0.23492919 -0.28110114 -0.301202 -0.25736085
-0.12623264 -0.25289312 -0.29856664 -0.20853184 -0.19862582 -0.22394115 -0.16392073 -0.19818689
-0.22293353 -0.16196476 -0.2714511 -0.22356951 -0.2063562 -0.22395486 -0.15914766 -0.17758451
-0.18771096 -0.27475068 -0.21595901 -0.23024222 -0.24453768 -0.25220844 -0.2539747 -0.20780045
-0.192337 -0.23839106 -0.17289558 -0.21160194 -0.23081811 -0.32548526 -0.13267459 -0.23927936

conv2.1.running_mean f4 [64]
00000000: c7b1 10bf f278 d33e 8b1c e8be df4e f3be
00000010: 380b 81be 4d65 f8be 54d3 b3be 69dc 1bbf
00000020: f4aa 06bf 0827 e7be 4c7d fbbe 57b7 f8be
00000030: 9323 1bbf 1b8c 0bbe 7597 1bbf eb10 24bf
00000040: 88f8 0abf f168 d7be 5a75 e1be 5a87 82be
00000050: 3931 10bf 87c8 1abf 9f6f 19bf 4de8 afbe
00000060: 2ec1 debe 3ea1 37bf aa31 ffbd 6e8b 17bf
00000070: 7933 80be 4f45 b13c c4b3 eabe bcab 76be
00000080: 2cd1 f8be 3a6b 8cbe d5a6 b9be 3222 e1be
00000090: d846 03bf d141 03bf ec50 0fbf 52ec dfbe
000000a0: 0bb4 30bf 8a16 a4be 064c bfbe c47e d7be
000000b0: fb51 87be 6833 1abf c34b 04bf ca14 0fbf
000000c0: 0689 dabe 720f 25bf a3c6 11bf 662a a63d
000000d0: 8bc0 29bf aefe 39bf c791 babe 1cb4 0fbf
000000e0: 7daf 94be 879e 4fbe e007 22bf fda5 d0be
000000f0: 9a3c ffbe 3ec6 0bbf b0a8 e9be 861f 3ebf
-0.56521267 0.4130321 -0.45334277 -0.4752111 -0.25203872 -0.48514786 -0.35122168 -0.60883194
-0.52604604 -0.45146966 -0.4911903 -0.48577377 -0.60601157 -0.13627665 -0.6077798 -0.64088315
-0.5428548 -0.4207225 -0.44034845 -0.2549389 -0.5632511 -0.6046223 -0.59935945 -0.3435692
-0.4350676 -0.7173041 -0.124606445 -0.5919713 -0.2503927 0.021639494 -0.45840275 -0.24088949
-0.48597085 -0.27425557 -0.36260095 -0.439714 -0.51279974 -0.512723 -0.5598285 -0.43734986
-0.69024724 -0.32048446 -0.3736269 -0.42088902 -0.26429734 -0.6023469 -0.51678103 -0.55891097
-0.42682666 -0.6447669 -0.5694372 0.081135556 -0.6630942 -0.72654235 -0.36439344 -0.561342
-0.29040137 -0.20275317 -0.63293266 -0.4075164 -0.49850923 -0.5459937 -0.4563651 -0.7426685

conv2.1.running_var f4 [64]
00000000: 8619 863e 1efa d83e bb85 873e f336 9c3e
00000010: 640b 983e 54e0 cd3e dd84 863e dd15 783e
00000020: 0f69 ad3e b25e bc3e 14c1 853e ca9e 883e
00000030: 9624 183f 5770 813e 989e aa3e da10 1c3f
00000040: 4d51 863e cfa6 ee3e ad26 a43e c9be a13e
00000050: 7273 9d3e 5c7f b33e 1be8 ca3e b832 8a3e
00000060: 36a0 eb3e 2498 f43e 1ae6 ab3e 5e72 933e
00000070: 3cc4 863e 20eb 923e d640 a83e 83a2 953e
00000080: 5551 6e3e 37de 9b3e e372 e03e 4161 533e
00000090: bcb1 b13e ff77 aa3e 6512 b73e a471 aa3e
000000a0: afaa e03e 8810 cd3e 7657 bb3e 8f47 a43e
000000b0: a0bd 9b3e 5dbb ca3e c59e ba3e c765 aa3e
000000c0: a5dc 9a3e 8854 e53e f78f 8f3e 925a 9e3e
000000d0: 3bae cb3e 098d c53e 75a8 c33e fb99 db3e
000000e0: 6dfa 973e ff3d 923e 7a67 a63e 619c 863e
000000f0: 2b0a c43e e300 d63e 7056 b43e 497c b33e
0.26191348 0.42378324 0.26469216 0.30510673 0.2969619 0.4021021 0.26273242 0.2422709
0.33869216 0.36790997 0.2612387 0.26683646 0.59430826 0.2528102 0.33324122 0.60963213
0.26233903 0.4661164 0.32060757 0.3159087 0.3075214 0.35058105 0.39630207 0.2699182
0.4602067 0.47772324 0.3357399 0.28798193 0.2632159 0.2869501 0.32861966 0.2922555
0.23273213 0.30442974 0.43837652 0.20642568 0.34705913 0.33294675 0.3575622 0.33289826
0.4388022 0.40051675 0.36590165 0.32085845 0.3041811 0.39596072 0.36449257 0.33280775
0.30246463 0.44791055 0.28039524 0.30928475 0.39781365 0.38584164 0.3821446 0.42890915
0.29683247 0.28562924 0.3250082 0.26291183 0.38289008 0.41797552 0.35222197 0.3505576

conv3.0.weight f4 [64, 64, 3, 3]
00000000: ee86 1bbb 3a7f a7bc 1287 293c 45ed a9bb
00000010: eb74 85bd 97c9 5f3c 00be dd3b e0d4 94bc
00000020: 6f76 5c3c 9713 67bc 1ae0 59bc 016d 89ba
00000030: fea4 b2bc f5ff 1b3c 19c4 bc3b ed85 a13c
00000040: 02de 68bc 115d 7b3c 8fc7 f23c 541b 1abc
00000050: 0fbc b83b a18b 603c b6e1 183c 8e3e 78bd
00000060: b71d 0e3c a8cd ab3b 9ada b63c 95b4 7cbb
00000070: 0b04 8fbc 0ef5 cabc 5ea0 b53c 365f 0c3d
00000080: 1d91 2e3d 9585 82bc aa5c 5fbd 1f8d 8e3a
00000090: ff82 e2bc 10c4 703b ea52 a3bc 9fc1 df3c
000000a0: 380d 013d 703a ccbb 099f 053d d697 833d
000000b0: b59f 133c e86c 9d3c 3ffb 2b3d a9a8 4fbc
000000c0: f4b6 893b ef43 c33c d36d 413b 0ffd ba3b
000000d0: 3305 723c 5463 aebb a9f8 063c fd43 0e3c
000000e0: 4752 e2bc 4523 0b3d 1b76 bf3c aae1 07bd
000000f0: 1201 15bd 36a2 f03c 5e4e bbbb 743e 30bc
00000100: 7c3c 083d 4487 2c3c 16cc cd3c d143 42bc
00000110: 71c8 0a3d d6af f5bc cf84 0bbd f2f8 63bc
00000120: c7eb de3b fb15 b93c 2cb8 1dbd 4e05 bebc
00000130: 0f0f 7c3c b4ae 313d e8ce 9fbc 247d 08bd
00000140: 8648 59bc 42f2 abbb 90e0 803d 6902 c23c
00000150: e046 abbd 9c7a 863a 3aeb 923c 2632 09bd
00000160: 769a 5f3b 646e 1dbd 6225 cfbc 37ff 93bc
00000170: 71c1 183b d26b 65bc 4f22 04b6 c6d7 5f3d
00000180: 5d4c c7b8 79a3 febb 23f7 633d 021d 2b3c
00000190: 2c3d 113d d9ec 99bc 3e65 cd3c 6e6d babb
000001a0: d284 2f3c 101b 9c3c 8579 27bc a828 05bd
000001b0: 5e66 403d 1a4e 12bd cbd9 85bb f942 0bbd
000001c0: f70f 60bd 17ab 8f3c 96ea 50bc 441f db3c
000001d0: 8a26 45bc a261 d9bc 9724 b1bc 6ce1 7fbd
000001e0: 313a 72bb 7e78 9e3c 41f7 dbbc d9ab 503c
000001f0: fa87 fa3c 5adb 8e3c d937 9a3d 3033 ef3b
00000200: d408 76bc 4f98 9e3c 7daf dfbb b23a cabc
00000210: 2054 a6bc adb8 c9bc 81c1 4dbc d871 8ebc
00000220: 07dd 35bc 5a91 993b 28d1 dbbc 4ce4 e93c
00000230: be94 3c3c 9065 173c 0cd8 063d 66b8 013c
00000240: 3ce0 ed3b fd5e 93bc 4562 e03c f032 76bc
00000250: a777 09bd a8fa 9c3c 4d21 25bd 2880 08bd
00000260: 9fc2 0e3d bfe6 ccbc b9fb 183b 7afe 37bd
00000270: 7aa5 ee3c e82c 013d 3708 1fbd 9230 d93c
00000280: 6181 3e3d d363 a2bb 00ee 23bd 7e50 c63c
00000290: f4a7 ccbc 584d 0b3c 4cb8 02bd c58f d3bb
000002a0: 346d be3c 6ac9 a43c fef0 21bd ec90 d43c
000002b0: 53d8 a5bb c1c0 10bd ad86 053d 09a1 963d
000002c0: 1ec8 e2bc a879 043d c7d4 a1bc 81a1 723b
000002d0: 0564 943d 4020 f7ba 8b36 d23c f48e 6b3b
000002e0: 16ac 1fbc 14f9 6a3c a300 54bc 1466 2fbd
000002f0: e32a 203d 75ad efbb 742b 563c b35f 493c
00000300: a8ba 83bb 0ddc a5bc 0e89 6d3c 14d8 f9bc
00000310: 8ae5 63bc 6d3d 4d3a 318b 9abb 7527 8fbb
00000320: 94be 84bc 290f 323c 7c5a 003d c859 6bbc
00000330: 25c9 88bd 052c a1bc 9d60 95bc c736 923c
00000340: 74a3 a1bc d0d3 93bc b0ca 86bb acbe bcbc
00000350: 8891 223d ec97 a23c cb48 adba d3aa 0bbd
00000360: d0a6 aabc b1f7 f9bc 7445 0d3c 9d29 2fbd
00000370: 2c82 21bd 6207 553c 784f fd3c d77b b2b9
00000380: b42c 323d 6096 2cbc e479 5a3c 82c9 ed3c
00000390: c3ec 9b3c 3739 2f3c 580a 1e3c e14e f1bc
000003a0: f4d2 49bb 44b7 a2bb c4bb 36bd 145d d03c
000003b0: 1ed4 833b 48f7 d03c 61ea a4b9 afbc 543d
000003c0: b8f8 433d cbb4 263d cc3a fc3c 1d80 273a
000003d0: f089 a2bc b35c bebc 0086 19bc 4e76 0f3d
000003e0: 9adc bf3c 883e 623c 5d97 9f3c 7ff7 d63b
000003f0: 3522 75bd cd92 4bbd fc98 85bd 98d6 b83b
-0.0023731547 -0.020446409 0.010347145 -0.0051857554 -0.06516441 0.013658903 0.0067670345 -0.018167913
0.013455971 -0.014103792 -0.013298059 -0.0010484756 -0.02180719 0.009521474 0.0057606813 0.019717181
-0.014213087 0.015342013 0.029636173 -0.00940593 0.0056376527 0.013705165 0.009331157 -0.06060653
0.008674077 0.005243022 0.022321034 -0.0038559784 -0.017457983 -0.024775054 0.022171196 0.034270488
0.04261886 -0.015932838 -0.05453173 0.0010875798 -0.027650354 0.0036737956 -0.019936997 0.027314005
0.031506747 -0.006232552 0.03262237 0.06425445 0.009010245 0.01921697 0.041987654 -0.012674489
0.004202718 0.023836104 0.0029514923 0.0057064365 0.014771747 -0.0053218994 0.008237996 0.008683202
-0.027627124 0.033969183 0.023371747 -0.033174194 -0.036377974 0.029374223 -0.005716129 -0.0107570775
0.033260807 0.010530297 0.02512173 -0.011856989 0.033882562 -0.029991072 -0.034062203 -0.013914334
0.006803009 0.022593489 -0.038505718 -0.023195889 0.01538445 0.0433795 -0.01950784 -0.03332247
-0.01326192 -0.0052473852 0.06292832 0.02368279 -0.08363128 0.0010259929 0.01793443 -0.03349509
0.0034119166 -0.038435355 -0.02528638 -0.018066032 0.002330866 -0.014002757 -1.9689503e-06 0.054649137
-9.503283e-05 -0.0077709523 0.05565561 0.010443928 0.03545873 -0.018789696 0.02507269 -0.0056893146
0.010712819 0.019055873 -0.010221844 -0.032509476 0.046972625 -0.035719015 -0.004084801 -0.033999417
-0.054702725 0.017537637 -0.012751242 0.026748307 -0.012033114 -0.026535813 -0.021623893 -0.06247084
-0.0036960954 0.019344565 -0.026851298 0.012736284 0.030582417 0.01743858 0.07530183 0.007299803
-0.015016753 0.019359736 -0.0068263398 -0.024686191 -0.020303786 -0.024624193 -0.012558342 -0.01738827
-0.01110006 0.0046865167 -0.026833132 0.028551243 0.011510072 0.009240523 0.032920882 0.007917499
0.007259397 -0.01798963 0.027390609 -0.015026793 -0.033561375 0.019162491 -0.04031496 -0.033325344
0.034853574 -0.025012372 0.0023343398 -0.044920422 0.02913164 0.031536967 -0.038826194 0.026512418
0.046510104 -0.0049557476 -0.040021896 0.024208304 -0.02498243 0.008502327 -0.03191404 -0.0064563476
0.023245431 0.020115573 -0.03953647 0.02594801 -0.0050611882 -0.035340074 0.03259914 0.07354934
-0.027683314 0.032342583 -0.01975478 0.0037022533 0.0724564 -0.0018854216 0.025660774 0.003594336
-0.009745618 0.014341611 -0.012939605 -0.04282196 0.0391034 -0.007314379 0.0130718835 0.012290883
-0.004020054 -0.02024653 0.014498008 -0.030498542 -0.013909707 0.00078292825 -0.0047163 -0.0043687173
-0.016204156 0.010867872 0.031336293 -0.014364667 -0.0667899 -0.01967431 -0.018234545 0.017848385
-0.01973126 -0.018045336 -0.0041135177 -0.023040138 0.03968957 0.019847833 -0.0013220547 -0.034098458
-0.020831496 -0.030513616 0.008622516 -0.042764295 -0.039430782 0.0130022485 0.030921683 -0.00034043074
0.043499663 -0.010533899 0.013334725 0.02902675 0.019033795 0.010694793 0.009646021 -0.029456558
-0.0030795904 -0.0049656946 -0.04461266 0.025435008 0.004023089 0.025508538 -0.00031455143 0.051937755
0.04784462 0.04069976 0.030789755 0.0006389635 -0.019841164 -0.023237562 -0.009370327 0.035024934
0.02342062 0.013808854 0.019481355 0.0065602656 -0.059847075 -0.049700547 -0.0652332 0.005640816

conv3.0.bias f4 [64]
00000000: f88b 9934 233e 5334 27fb 4db6 23c0 65b5
00000010: 474b a2b3 c975 64b4 3d37 27b5 0213 feb3
00000020: 9f0b fc34 5567 adb5 2ede b3b4 26de 8bb5
00000030: 9aed 9fb3 456d 9d33 7b50 d3b2 7b45 9fb4
00000040: 63e7 e334 f194 e1b3 c853 bb34 db8b 2534
00000050: 2a5d 04b5 37a1 6e34 cfcc 1036 aea6 55b6
00000060: bf3d 1335 78a5 8bb3 43bc 18b5 d029 e7b3
00000070: 0197 09b5 13b7 4db4 2372 eeb5 ca3e 7235
00000080: 29d9 1fb2 e20e 4f34 f9a4 a0b5 e4b9 c5b4
00000090: 8d5d 4a35 0ff1 1833 f364 e8b4 da9d cb34
000000a0: d2d7 c934 26d4 e8b1 b05e 6bb4 9d21 11b6
000000b0: 73fc 8fb5 4649 dc33 cf68 d531 d806 0eb4
000000c0: 3a86 6f33 86bd d934 7645 0c34 3632 c234
000000d0: b4a3 fe33 e4f0 0235 2218 53b4 3d6f 12b6
000000e0: cc8e 3cb4 64e3 4434 7135 8133 239a 8236
000000f0: d8e0 54b5 dbac 06b5 0bdf 9a32 7e08 0533
2.8600311e-07 1.9673512e-07 -3.069357e-06 -8.5588744e-07 -7.557406e-08 -2.1277005e-07 -6.229273e-07 -1.1831254e-07
4.6947113e-07 -1.2919578e-06 -3.3503005e-07 -1.0420961e-06 -7.447234e-08 7.330758e-08 -2.4600231e-08 -2.9666612e-07
4.24504e-07 -1.0504471e-07 3.4892423e-07 1.5417702e-07 -4.9309403e-07 2.2224127e-07 2.1576886e-06 -3.1836494e-06
5.485162e-07 -6.5027905e-08 -5.689837e-07 -1.07643814e-07 -5.1256217e-07 -1.9158715e-07 -1.77656e-06 9.0243395e-07
-9.304395e-09 1.9283792e-07 -1.1968942e-06 -3.6829363e-07 7.5387e-07 3.56095e-08 -4.3286818e-07 3.792655e-07
3.7596197e-07 -6.776207e-09 -2.1920528e-07 -2.162625e-06 -1.0727803e-06 1.0257877e-07 6.2110312e-09 -1.322727e-07
5.5768602e-08 4.0557296e-07 1.3063786e-07 3.617185e-07 1.1857574e-07 4.8779316e-07 -1.9659686e-07 -2.1820445e-06
-1.7560814e-07 1.8336647e-07 6.0167515e-08 3.892246e-06 -7.9303345e-07 -5.017043e-07 1.8029388e-08 3.09742e-08

conv3.1.weight f4 [64]
00000000: 78b2 7a3f b8d0 8e3f c149 833f 8f4a 843f
00000010: ebf5 873f 419a 8d3f bdf8 8a3f 938c 813f
00000020: c170 8b3f 2b28 893f 86fb 8b3f 47f1 803f
00000030: c44f 803f 4b24 8a3f 55ea 873f 8741 8c3f
00000040: f3b9 753f e7c8 813f 1d84 8a3f 066c 873f
00000050: ab58 853f c4ec 853f bc75 8b3f 8a3b 8c3f
00000060: 5058 913f ae58 873f 6003 823f f0f2 903f
00000070: b23f 893f a60d 8b3f 3792 923f a367 803f
00000080: ef66 763f 3e08 7e3f 5190 833f b3e6 873f
00000090: 37a3 813f 9323 8a3f 2961 893f 7483 853f
000000a0: 30f3 7e3f 1b60 823f dedd 863f e9db 803f
000000b0: f6e5 873f 939e 823f b7f6 843f 7bed 883f
000000c0: 0165 893f 8c33 8c3f ded2 803f 47f7 823f
000000d0: 5f1f 8c3f 2c8d 8a3f e661 903f 136b 753f
000000e0: c447 8b3f 9035 883f 47db 8d3f 9d7f 8b3f
000000f0: 4685 853f d7a9 833f 2599 673f 9c94 7f3f
0.9792857 1.1157446 1.0256883 1.0335253 1.0621923 1.10627 1.0857159 1.0121025
1.0893785 1.0715383 1.0936134 1.0073632 1.0024343 1.0792326 1.0618387 1.0957497
0.9598686 1.0139436 1.0821568 1.0579841 1.0417684 1.046288 1.0895305 1.095567
1.1355076 1.0573938 1.015728 1.1324139 1.0722563 1.086354 1.1450871 1.0031627
0.96250814 0.99231327 1.0278417 1.0617279 1.0127934 1.0792106 1.0732776 1.0430741
0.99589825 1.0185579 1.0536458 1.0067111 1.0617054 1.0204643 1.0387791 1.0697473
1.0733949 1.0953231 1.0064352 1.0231713 1.0947074 1.0824332 1.1279876 0.9586651
1.0881276 1.0641346 1.1082543 1.089832 1.0431297 1.0286206 0.90468055 0.99836135

conv3.1.bias f4 [64]
00000000: 4e1b 433d 2c31 623d d594 f73c a865 1c3d
00000010: c96c fdbb 0e96 df3b a7f7 a9bb af77 1a3d
00000020: 96bf 553d 3a8a 2e3d 7514 303d 9f85 973d
00000030: 6fab 833c f0fb 16bd 1780 b73c 6fda 4d3d
00000040: e65f 393d 77c7 4c3d 83d3 6c3d 522a 5c3d
00000050: 0c21 2b3d d811 263c a47d 52bd 716d f53c
00000060: 53c2 403d e408 063d 2a0b 783d 4c6d 513d
00000070: d891 553d 17d5 d73b 9ce6 6b3d 5963 823d
00000080: fd46 95bb 641c 243d d27c 7a3d baf6 413d
00000090: b638 993d 835f b0bc b9d4 283a d67c 313d
000000a0: ee26 423d 08d9 063d d764 083d 3cee 943c
000000b0: df96 e43c f351 cd3c 1ab1 ac3d 6fd5 b53c
000000c0: 1ab6 233d 6942 7d3d f557 183c 55f8 883d
000000d0: f8c4 10bd ad7c 753c 1ad1 223d c390 e43c
000000e0: 9227 d73c 6866 0f3d bfd2 593d 6bdd 483d
000000f0: e9e3 ba3c 19e5 de3c 13c4 1b3d 07e0 223d
0.04763346 0.055222675 0.030222336 0.038182884 -0.0077339155 0.006823308 -0.005186993 0.037711795
0.052184664 0.042612292 0.04298826 0.07398533 0.016072957 -0.03686136 0.022399945 0.050257143
0.04525747 0.049994912 0.0578189 0.053751297 0.041779563 0.01013609 -0.05138935 0.029959412
0.047060322 0.032723323 0.060557522 0.051129624 0.05214104 0.0065866816 0.057592973 0.06366605
-0.0045555816 0.040066138 0.061154194 0.047354437 0.0748152 -0.021529919 0.00064403896 0.043331943
0.047400407 0.03292182 0.033299293 0.018180005 0.027903972 0.02506349 0.08432217 0.0221965
0.039968587 0.06183091 0.009298314 0.066879906 -0.035344094 0.014983338 0.039750196 0.027901059
0.026263986 0.03500977 0.0531795 0.049039286 0.022813754 0.027208852 0.038028788 0.03976443

conv3.1.running_mean f4 [64]
00000000: c04a abbd 7f02 d83d d3b1 2abe c6cb fbbd
00000010: 4a18 3b3e 7999 97bd 8dea abbe c320 bebd
00000020: 5850 ffbd cf06 893c 48d8 2dbe 2a34 8ebe
00000030: 1dd3 f7bd 06f1 cabe e1d1 34be 795d f9bc
00000040: fc5a 82bd c181 25bc 7dde d43c 48e8 5dbd
00000050: 155d b93a 7414 303c 203a acbe de42 53be
00000060: f7bd 3139 b9cb ffbd c952 1dbd c0d0 27be
00000070: 2574 03be 89bf 8d3d 3102 29be 3591 29bd
00000080: 2a0e 8fbd 0532 35be e67e 62be 1c4e 01bc
00000090: fef3 23be b99d 93be 1425 b4be 4ef3 633d
000000a0: 303b 95bd ab94 1abb 32c0 0a3c 3a4f febd
000000b0: 1b3b 50be 5c59 0ebe b626 83bd 4e1d 4cbe
000000c0: 3655 bcbd d64c 46be 377d cc3d 348f 1abd
000000d0: d3ae 90ba 7d49 6dbd 63db 99bc b527 a5bc
000000e0: f915 10be 6de6 abba 28d5 403d d966 c3bd
000000f0: 5e2f 77be 1598 90bd d1d1 80bd eef9 c8bd
-0.08363867 0.10547351 -0.16669397 -0.12294726 0.18270984 -0.074023195 -0.33577386 -0.092835926
-0.12466496 0.01672688 -0.16977036 -0.27774173 -0.121008135 -0.3963701 -0.17658187 -0.030440079
-0.0636501 -0.0101017365 0.025984997 -0.0541766 0.001414212 0.010747064 -0.33638096 -0.20630977
0.00016950803 -0.12490029 -0.03840903 -0.16388226 -0.12837274 0.06921298 -0.16504742 -0.041398246
-0.069851235 -0.17694862 -0.2211872 -0.007892158 -0.16011044 -0.2883127 -0.35184538 0.055651955
-0.0728668 -0.0023587148 0.0084686745 -0.12417455 -0.20335047 -0.13901275 -0.06403868 -0.19933054
-0.0919594 -0.19365248 0.0998482 -0.037734225 -0.001103843 -0.057931412 -0.01878137 -0.020160535
-0.14070882 -0.0013114937 0.04707828 -0.09541101 -0.24139163 -0.07060257 -0.06290019 -0.09813295

conv3.1.running_var f4 [64]
00000000: ec8c 313d 7413 573d 8d67 3b3d 29c0 353d
00000010: 8a52 7d3d 1886 5c3d be27 6e3d 0157 233d
00000020: 2bb6 3d3d ed3d 4c3d fa7d 743d 0205 283d
00000030: fc23 133d 8ac3 573d 5cbb 433d 54d7 443d
00000040: 8cfd 1e3d 24c6 2a3d 9999 413d ee6b 493d
00000050: 097c 3c3d 7e6d 2d3d c450 763d 8f5e 483d
00000060: 2660 853d 68ba 4f3d 6395 4e3d 4362 703d
00000070: 4c01 623d 4186 333d 6e2a 483d df30 283d
00000080: c173 253d 5499 353d 4c16 483d 899b 673d
00000090: b791 3f3d ae2a 743d ac8c 6d3d fe74 3a3d
000000a0: 654c 2d3d adb4 453d 773a 553d 83bc 443d
000000b0: f5d9 473d db8b 2a3d f97c 213d 8df8 403d
000000c0: a93f 443d 6200 413d e17c 283d 8cb2 473d
000000d0: 19d4 323d 368e 543d 5835 2f3d 7c45 123d
000000e0: 1832 303d 2265 653d d776 613d e328 563d
000000f0: e0bd 253d 4e31 3f3d e7cc 2d3d 818b 273d
0.043347284 0.052508786 0.04575305 0.04437271 0.061846294 0.05383882 0.05814337 0.039877895
0.046316307 0.049863745 0.059690453 0.0410204 0.03592299 0.052676715 0.0477861 0.048056915
0.03881602 0.041692868 0.047265623 0.049175195 0.046016727 0.042340748 0.060135618 0.048918303
0.065124795 0.05071488 0.050435435 0.05868746 0.055177018 0.043829206 0.04886859 0.041062232
0.040393595 0.04433568 0.04884939 0.056544814 0.046769824 0.059611015 0.057995483 0.04552173
0.042309184 0.04826801 0.05205771 0.04803134 0.048791844 0.041637283 0.039425824 0.047112036
0.047912274 0.047119506 0.04113472 0.04875426 0.043659303 0.051893435 0.042775482 0.035710797
0.043016523 0.05600465 0.055044975 0.052285086 0.040464282 0.04667788 0.04243174 0.040904526

cls_layer.0.weight f4 [128, 256]
00000000: 30cd b03b 6afa 993d 5663 92bd 8e34 f13c
00000010: 6ae0 06bc 57bd d03c b192 813c 042a 02bd
00000020: abda 8c3d 5a4a 863d e574 4a3d 7fed b63c
00000030: 8fd9 d83a 718a 5a3d e487 96bd 33c3 ccbd
00000040: b49c 8dbc fcaa 173d 816e f2bc 455c 113d
00000050: 0abc b3bc 378f 823d 0651 18bc d4a0 a9bc
00000060: 7f9c f93c dfaa 1fbc c259 a63b 7795 523d
00000070: d252 9bbd 1338 dbbc 026c 5a3d b35a f93b
00000080: 42ef 033d 5d63 8bbd 3af4 4ebd 5b0d 8dbd
00000090: 5f41 d03d a440 7dbc 5c47 a1bc b636 493c
000000a0: 831d 743d 2ff6 f93c 7e08 1f3d 16fc 873c
000000b0: 28cb 4fbb dfaa aebc 87cf 40bd 0c62 88bd
000000c0: b6be 6a3b cbc9 f53d 4921 6bbd 5567 92bc
000000d0: 9ebd ab3b 46ef 0f3d 5cbd 093d a24a a73c
000000e0: 3a75 dbbc a77a 02bc 9689 71bd 9bc2 2b3c
000000f0: be2b 873d 9be9 8b3d ab8c bb3d 5d88 293b
00000100: 4873 bcbc 0e04 043d 9f08 89bd b22f 923c
00000110: c519 483d 1d7c afbd 860f 6c3b 1a72 9f3c
00000120: a878 5f3c 6ba0 0dbd dd72 00bd 1106 d2bd
00000130: 7475 6fbd 919b 7d3d 38ec 36bb 21f6 923d
00000140: 1779 2ebd ea2c 50bd 1b3f f0ba 5fef 6ebd
00000150: f1a0 a93d 863c 353d 5bd3 883d a53f 633c
00000160: 4b72 ecbb 1959 9d3d 09c2 1a3d fbc6 593c
00000170: 6280 db3c ca4f a03d f071 7ebd daf4 b2bc
00000180: 11a2 2c3d ee6c 8dbc 266b 91bd 7814 64bd
00000190: 3bfa 2cbc d9f7 483b 280f 293c 1df0 63bd
000001a0: df56 4e3c 1fb3 86bd 75c9 bf3d 2150 b73c
000001b0: 1ee3 6139 7115 f03d ef97 433b ea63 c63a
000001c0: 5034 883c aac1 be3c 00bc ef3c 7949 7dbd
000001d0: e8e7 9138 c01a 91bc 852a abbc 4107 a23d
000001e0: cd14 2e3d da65 a13c 2c3f debd 723d 99bd
000001f0: 2168 603c 20dc 933c 9354 35bd 9e16 ac3b
00000200: 0a0d acbc 5dc2 c63d fa97 ccbb 4573 6c3d
00000210: 443a cebc a29a 3f3d b086 d3bc 4246 363d
00000220: db66 33bc 524e 10bc 8997 343c 9a02 ea3d
00000230: 75f3 c8bc 9b81 fabc 36e2 1b3c 9e4e 8639
00000240: 84eb 68bd f101 4e3c 2922 ea3c d425 a0bd
00000250: a6a3 f93a 7bd3 2d3b 31f5 633d 5fbc 94bd
00000260: 7cfd fc3c a015 063d d9c0 2f3d 7a24 183c
00000270: 7d57 a73c 9977 a83c 85f1 083d 1b70 efbb
00000280: 1046 a43d a2c5 e1bb 3631 8c3d dab3 2cbd
00000290: e53d 8b3c f6a7 ae3c 79c9 643c ef6e 27bb
000002a0: c9c8 9a3d 8252 a03d dd15 00bd 7258 a5bc
000002b0: b062 a13c 9f2f 69bd 9a39 8d3d 6133 08be
000002c0: c5a4 9b3c 21d7 2b3d 6008 1f3c 6faf 493d
000002d0: d4f4 ea37 aa0f e73d b587 ee3c f4d9 65bd
000002e0: a046 553d 8d03 403c 0935 123c 46d6 77bd
000002f0: 85d2 8bbd 5970 e2ba c975 00bd 9de7 f03b
00000300: c7f0 abbc b937 053e bb0c 4abd 5851 c43d
00000310: a574 873d 7b55 de3c 9a7d 99bd df94 073d
00000320: b617 643d 720e 553d 34d2 f5bc b90a a2bc
00000330: 50f6 da3c ce0d 91bb 7f71 4b3c b2fa a03d
00000340: 0ed2 5b3c 94c9 4c3c bc7a c5bc 3fed 4b3d
00000350: d3da a43b ff81 423d 79ac 47bc eeb5 da3b
00000360: 4684 cdb9 d67e 503d 4b84 99bd fd89 30bd
00000370: 986f 9f3c b150 d23c 6df3 15bd e9a7 89bc
00000380: 75ae babc c165 623d 8f70 05bd 257c 833d
00000390: 1f68 cdbc 4237 a8bc 398e bcbc fa1b 92bc
000003a0: c325 0dbd 33d0 f1bc 34f7 c2bd a696 86bd
000003b0: fc06 edbb 45d3 ab3d 63b1 3cbd ece9 483d
000003c0: fe62 483d 9b2b ac3d 7cc9 4a3d 3299 113d
000003d0: b0ff 583d 1380 44bd 31c2 cdbc 349b bbbd
000003e0: 5a5e bfbc 6c47 be39 b011 413c 146e d1bc
000003f0: f1d5 803d c137 0b3d 498b 723b be11 a9bd
0.005395554 0.07518466 -0.07147853 0.029444005 -0.008232215 0.02548091 0.015817018 -0.03177835
0.06877645 0.0655715 0.049427886 0.022330044 0.001654433 0.053354684 -0.07350138 -0.09998169
-0.017286636 0.037028298 -0.029593708 0.035488386 -0.02194025 0.06374972 -0.009296661 -0.020706572
0.030470131 -0.009745329 0.005076618 0.051412072 -0.07584156 -0.026760137 0.05332566 0.007609689
0.032210596 -0.068060614 -0.05052588 -0.06887313 0.101687185 -0.015457306 -0.019687347 0.0122811105
0.059598457 0.030512897 0.03882646 0.016599696 -0.0031706784 -0.021321712 -0.047072913 -0.06659326
0.003581924 0.120013796 -0.05740479 -0.017871538 0.00524111 0.0351403 0.033627853 0.02042133
-0.026789296 -0.007963813 -0.058969103 0.010483409 0.0660014 0.06831666 0.0915769 0.0025868632
-0.02300419 0.03223043 -0.066910975 0.017845009 0.0488527 -0.085685946 0.0036019995 0.019463588
0.013639607 -0.034576815 -0.031359542 -0.10255063 -0.05846162 0.061915938 -0.0027911793 0.071758516
-0.04259595 -0.050824083 -0.0018329354 -0.05833375 0.0828265 0.044247173 0.06680938 0.0138701545
-0.007215773 0.0768301 0.037782703 0.01329207 0.026794616 0.078277186 -0.062120378 -0.02184527
0.042146746 -0.017263856 -0.07100515 -0.055683583 -0.0105577065 0.0030665307 0.010318555 -0.05564891
0.012593954 -0.065771334 0.09364597 0.022377076 0.0002154228 0.117228396 0.0029845198 0.0015135978
0.016626507 0.023285706 0.02926445 -0.061837647 6.957335e-05 -0.01771295 -0.020894298 0.0791154
0.042500306 0.019701887 -0.10851893 -0.07482423 0.013696701 0.0180493 -0.04427011 0.0052517196
-0.021002311 0.097050406 -0.006243703 0.057727117 -0.025174268 0.04677833 -0.02582106 0.044500597
-0.010949816 -0.0088077355 0.011022457 0.114262775 -0.024530152 -0.030579379 0.009514382 0.00025617046
-0.05686523 0.012573705 0.028580742 -0.07819715 0.0019045963 0.0026523757 0.055653755 -0.072624914
0.03088259 0.032735467 0.042908523 0.00928604 0.02042746 0.020564841 0.033433456 -0.007307065
0.08021176 -0.0068900147 0.06845324 -0.042163707 0.016997287 0.021320324 0.01396405 -0.00255483
0.07557828 0.07828237 -0.03127085 -0.020183776 0.019700378 -0.05693018 0.06895752 -0.1330085
0.018999467 0.04195321 0.009706587 0.049239572 2.800898e-05 0.112822846 0.029117445 -0.05611606
0.052069306 0.011719597 0.008923777 -0.06050708 -0.06827263 -0.0017275914 -0.03136233 0.007351829
-0.020988835 0.13009538 -0.049328547 0.095858276 0.06614045 0.02714037 -0.0749466 0.03310096
0.055686675 0.05201573 -0.03000746 -0.019780504 0.02672878 -0.0044266945 0.012417196 0.07860316
0.01341678 0.012499232 -0.024106376 0.049786802 0.0050309687 0.047487255 -0.012187117 0.0066745197
-0.00039199198 0.05090221 -0.07495936 -0.043100346 0.019462392 0.025673242 -0.036609102 -0.016803699
-0.022788266 0.05527282 -0.032578047 0.06420163 -0.025074063 -0.020534161 -0.023017036 -0.017835606
-0.03445984 -0.029518222 -0.095198065 -0.06571703 -0.0072334986 0.08389906 -0.046067607 0.04905121
0.04892253 0.084067546 0.049508557 0.03554649 0.052978218 -0.047973704 -0.025117012 -0.09160462
-0.02336042 0.00036292837 0.011784002 -0.025565185 0.06290806 0.033988718 0.003700929 -0.08255337
